best_model.pth (torch, 250402 bytes, 10 tensors)

c1.weight f4 [6, 1, 5, 5]
0	0x3f1409f6	0.578277
1	0x3fc77cb3	1.558493
2	0x3f2e7538	0.6814761
3	0xbe60eb3c	-0.21964735
4	0xbf23b2ea	-0.63944876
5	0xbe053aca	-0.13010707
6	0x3fcf3107	1.6186837
7	0x3f56c5c7	0.83895534
8	0xbf06986c	-0.5257633
9	0xbebe92f9	-0.37221506
10	0xbee63c09	-0.44967678
11	0x3f97e616	1.1867092
12	0x3f0729c6	0.52798116
13	0xbf77f1fe	-0.96853626
14	0xbf3a4e18	-0.7277541
15	0xbf125501	-0.57160956
16	0x3f695527	0.9114556
17	0x3eaca752	0.33721405
18	0xbf6504f5	-0.8946069
19	0xbf3ba813	-0.73303336
20	0xbf0eabfa	-0.55731165
21	0x3ead29fc	0.33821094
22	0x3cd2514e	0.025673535
23	0xbf8410b4	-1.0317597
24	0xbf6119cc	-0.8792999
25	0x3f85350a	1.0406811
26	0x3fad521d	1.3540684
27	0x40081ea3	2.12687
28	0x3f7709cf	0.9649934
29	0x3cc3381f	0.023830472
30	0x3f9e16d3	1.2350715
31	0x40ab0b26	5.345111
32	0x40d9cfb1	6.806603
33	0x408aa5b3	4.332727
34	0x3f518842	0.8184854
35	0x3ec1e1e9	0.37867668
36	0x3ff12191	1.8838369
37	0x40b1452e	5.539695
38	0x40434d60	3.0515976
39	0xbe26b84e	-0.16281244
40	0xbe9983f9	-0.299835
41	0xbefdd875	-0.49579206
42	0x3e8d8c66	0.27646178
43	0x3f2cb652	0.674657
44	0xbeae8651	-0.3408685
45	0xbf4af9e0	-0.7928753
46	0xbf324fe4	-0.69653153
47	0xbf1a46b9	-0.60264164
48	0xbe6e1e76	-0.23253807
49	0xbf1432e1	-0.57890135
50	0xbd9cfd7e	-0.07665537
51	0xbf7ddc2c	-0.9916408
52	0xbfe1b5b9	-1.7633582
53	0xbff2f788	-1.898179
54	0xbf94c041	-1.1621171
55	0x3f331eda	0.6996895
56	0x3f5b1848	0.85583925
57	0x3ee7ce46	0.45274562
58	0x3f24e8f9	0.6441799
59	0x3e46f403	0.1942902
60	0x3f05d19b	0.5227296
61	0x403dfcec	2.9685621
62	0x41020a95	8.1275835
63	0x40ca6020	6.324234
64	0x3f9572e5	1.1675688
65	0x3d74d531	0.059773628
66	0x3f481a3f	0.7816505
67	0x4079d1bc	3.9034262
68	0x407e8b90	3.9772682
69	0x3e74f235	0.2392052
70	0xbf171b4c	-0.59026027
71	0xbf8eb0d3	-1.1147712
72	0xbf634851	-0.8878222
73	0xbeb32c17	-0.34994575
74	0xbf412860	-0.7545223
75	0xbf90c075	-1.1308733
76	0xbdc3765f	-0.09544062
77	0xbcc4af23	-0.024009293
78	0xbf81bb02	-1.0135195
79	0xbf15ad68	-0.5846772
80	0xbf23da89	-0.64005333
81	0x3f51a327	0.81889576
82	0x3f0a192c	0.5394466
83	0xbeb88ba2	-0.3604403
84	0xbf140f42	-0.5783578
85	0xbed3fdd6	-0.414046
86	0x3fe262a5	1.7686354
87	0x3ff0a2d7	1.8799695
88	0x3ebf2e7d	0.37340155
89	0xbe4363ca	-0.19081035
90	0xbf2642a2	-0.64945424
91	0x3fcc6ea8	1.597127
92	0x3ff909ca	1.9456112
93	0x3e8695ac	0.26286066
94	0x3d3f99e1	0.04677761
95	0xbf7d9b1d	-0.9906481
96	0x3f26c37b	0.6514203
97	0x3f575421	0.84112746
98	0xbde730d6	-0.112886116
99	0xbedf1d97	-0.43577263
100	0xbf33d7a2	-0.70250905
101	0xbcb60766	-0.022220325
102	0x3f16a7af	0.58849615
103	0x3f34c7f4	0.70617604
104	0x3d977878	0.073960245
105	0xbf63bf68	-0.8896394
106	0x3a9b8ace	0.0011866929
107	0x3f1c1c4d	0.60980684
108	0x3f62f97c	0.8866193
109	0x3e420f3a	0.18951121
110	0xbf8582a7	-1.0430497
111	0xbeb0edae	-0.34556335
112	0x3ead4de8	0.338485
113	0x3f56bdb4	0.83883214
114	0x3e891208	0.2677157
115	0xbf839252	-1.0279028
116	0xbf23d5b1	-0.6399794
117	0x3e8fb656	0.280688
118	0x3f5cbd3b	0.8622624
119	0x3e943955	0.2894999
120	0xbf80d5eb	-1.0065283
121	0xbf44bc42	-0.7684976
122	0x3e838e1e	0.25694364
123	0x3f41146f	0.75421804
124	0x3e0384bd	0.12843604
125	0xbf23078e	-0.636834
126	0x3e511fa6	0.20422229
127	0xbe96ba29	-0.29438904
128	0xbf8952e6	-1.0728424
129	0xbf561595	-0.8362668
130	0xbe91435b	-0.283717
131	0x3f4c599a	0.7982422
132	0x3e9ed830	0.31024313
133	0xbed47dd9	-0.41502264
134	0xbf3d4bd6	-0.7394384
135	0x3d173b1e	0.036921613
136	0x3fea9e32	1.8329527
137	0x3fc0cf76	1.5063312
138	0x3e6e1c04	0.23252875
139	0xbf2137b3	-0.62975615
140	0xbeee5e5d	-0.46556368
141	0x3f9b66ac	1.2140708
142	0x3fa50262	1.2891352
143	0x3eafe2a6	0.34352607
144	0xbea48c1a	-0.3213814
145	0xbf7da8de	-0.99085796
146	0x3ea7540a	0.32681304
147	0x3f689a5c	0.90860534
148	0xbe0262d1	-0.12733008
149	0xbed07a71	-0.40718415

c1.bias f4 [6]
0	0xbd9805b2	-0.07422961
1	0xbf3dc3e3	-0.74127024
2	0xbf2b22ce	-0.6684998
3	0xbf404861	-0.7511044
4	0xbf2d8c78	-0.67792463
5	0xbf26c714	-0.6514752

c3.weight f4 [16, 6, 5, 5]
0	0xbe0d85ae	-0.13820526
1	0xbe64e5f6	-0.22353348
2	0xbe355acd	-0.17710419
3	0xbe3e40e5	-0.18579443
4	0xbe156929	-0.14590897
5	0xbe06cd53	-0.13164262
6	0xbdbaa14e	-0.09112798
7	0xbde62703	-0.1123791
8	0xbe22cbc2	-0.1589804
9	0xbe53d6e4	-0.20687443
10	0x3cc75bb9	0.024335729
11	0xbda02f24	-0.07821491
12	0xbd9420a9	-0.07232792
13	0xbd92316d	-0.071383335
14	0xbd127736	-0.03575822
15	0x3d2fde45	0.042936582
16	0x3bf2326e	0.0073912656
17	0xbd4929df	-0.049112197
18	0x3c24e023	0.010063204
19	0x3df1e4ac	0.11811194
20	0xbdaed001	-0.08535767
21	0xbdb581ae	-0.08862625
22	0x3d93f1ea	0.07223876
23	0x3e5d5c66	0.21617278
24	0x3e3f2146	0.18665037
25	0xbdc29e6b	-0.09502872
26	0xbea46d5e	-0.3211469
27	0xbe9ac0d8	-0.30225253
28	0xbe575012	-0.21026638
29	0xbcc3b092	-0.023887906
30	0xbbdee04b	-0.00680164
31	0xb90058c3	-0.00012240098
32	0xbde5f00a	-0.112274244
33	0xbde6719b	-0.11252137
34	0x3cc187d2	0.023624334
35	0xbd838bc8	-0.064231455
36	0x3d016fc6	0.031600736
37	0xbc202740	-0.009774983
38	0x3e1be1b7	0.15222822
39	0x3dddaffb	0.10824581
40	0xbe1524c1	-0.14564802
41	0xbe6dd8ef	-0.23227285
42	0xbd113e89	-0.03546003
43	0xbdac131b	-0.084020816
44	0xbe3ab4f4	-0.1823309
45	0xbdb67f41	-0.089109905
46	0xbd9a6773	-0.075392626
47	0xbd53f050	-0.05174285
48	0xbe1d68b7	-0.15371977
49	0xbe941f4a	-0.28930122
50	0xbdb612b1	-0.08890284
51	0xbdbfb820	-0.09361291
52	0xbe70a69c	-0.23501056
53	0xbddf37c2	-0.10899307
54	0xbd288d76	-0.041150533
55	0x3c91b83e	0.017788049
56	0x3d8e2bfb	0.06941982
57	0x3c3ea7b1	0.01163666
58	0x3c774b07	0.0150935715
59	0x3d1d6e33	0.038435172
60	0xbdb08a70	-0.08620155
61	0xbdb33d09	-0.08751876
62	0xbdaf980a	-0.08573921
63	0x3d9b8449	0.07593591
64	0xbcb9df2c	-0.022689424
65	0xbea77e75	-0.32713667
66	0xbe66ebea	-0.22550932
67	0xbd9c69df	-0.07637381
68	0xbe15e0be	-0.14636514
69	0xbe885f7a	-0.26635343
70	0xbe17ca0e	-0.14823171
71	0xbd8c3e93	-0.068478726
72	0xbdb8b51a	-0.090189174
73	0xbe68ba60	-0.22727346
74	0xbed7da2e	-0.42158645
75	0xbe14a646	-0.14516553
76	0xbe2d867e	-0.16945836
77	0xbe189f17	-0.14904438
78	0xbe91b6cb	-0.28459772
79	0xbe07b108	-0.13251126
80	0x3b5e6a4c	0.003393787
81	0x3d4b89b8	0.049691886
82	0xb849e698	-4.813689e-05
83	0xbcd4aca9	-0.025961237
84	0x3cc071f4	0.023491837
85	0xbe2af18c	-0.16693705
86	0x3d871e8f	0.065976255
87	0xbbb17047	-0.005414996
88	0xbce582d2	-0.028016482
89	0xbd4ad104	-0.04951574
90	0xbe69ce08	-0.22832501
91	0xbe15cb3f	-0.14628313
92	0xbe0986d5	-0.1343034
93	0xbdf68ffb	-0.12039181
94	0xbe8a3f8e	-0.27001613
95	0xbde2aeb4	-0.11068478
96	0xbe04deb5	-0.12975581
97	0xbe8fa381	-0.2805443
98	0xbe6c6b8d	-0.23087902
99	0xbee10c59	-0.43954733
100	0xbe77327f	-0.24140356
101	0xbe65484d	-0.22390862
102	0xbdd90532	-0.10596694
103	0xbe1ae0a6	-0.15124759
104	0xbd2dc783	-0.042426597
105	0xbe800ad5	-0.25008264
106	0xbe2e4044	-0.17016703
107	0xbe644e66	-0.22295532
108	0xbcd6389e	-0.026150044
109	0xbd8f5915	-0.06999413
110	0xbe4047ac	-0.1877734
111	0xbd564b00	-0.05231762
112	0xbd98acfb	-0.074548684
113	0x3d081c9b	0.033230405
114	0xbcd697ec	-0.026195489
115	0xbe58bba5	-0.2116533
116	0xbdb37a61	-0.08763576
117	0xbe72cc34	-0.2371071
118	0xbda315f9	-0.07963175
119	0xbdb98305	-0.09058193
120	0xbe46a89d	-0.19400258
121	0xbe4857d0	-0.19564748
122	0xbe5e1dfd	-0.21691127
123	0xbe6d3a6b	-0.23166816
124	0xbe320dae	-0.17388031
125	0xbe26fa60	-0.16306448
126	0xbe4b1ce7	-0.19835244
127	0xbe88fc02	-0.26754767
128	0xbe8ef5ee	-0.27922004
129	0xbe031712	-0.1280177
130	0xbc92ad78	-0.017904982
131	0x3c104868	0.0088063255
132	0xbd91ddca	-0.07122381
133	0xbddf20aa	-0.10894902
134	0xbd16b07b	-0.0367894
135	0xbe4566d1	-0.19277503
136	0x3d16c5b0	0.036809623
137	0xbd8fd570	-0.07023132
138	0xbdf04bfa	-0.117332414
139	0xbc79adaf	-0.015239163
140	0xbe893981	-0.26801684
141	0xbe055a58	-0.13022745
142	0xbe16989c	-0.14706653
143	0xbe6ef4dc	-0.23335594
144	0xbe673ff6	-0.22582993
145	0xbdf0626a	-0.11737521
146	0xbda23b8e	-0.079215154
147	0xbe62119b	-0.22077028
148	0xbe59a08b	-0.21252649
149	0xbea9cfa7	-0.3316624
150	0x3deeb6da	0.1165597
151	0x3e532941	0.20621206
152	0xbe32e46c	-0.17469949
153	0x3d39519d	0.045243848
154	0x3df2cb45	0.11855177
155	0xbd9b5a2f	-0.075855605
156	0x3e06ee3a	0.13176814
157	0x3d0a5821	0.033775453
158	0xbce2b66c	-0.027674876
159	0x3db067bc	0.08613536
160	0x3d64c7ff	0.055854794
161	0x3d817585	0.06321243
162	0x3e5e4cd9	0.21709003
163	0x3da18bcb	0.078879915
164	0x3df096ce	0.11747514
165	0x3e23a77e	0.15981862
166	0xbe0ac3ba	-0.13551226
167	0x3e1eb20e	0.1549761
168	0x3e8be729	0.273248
169	0x3e66c7a5	0.22537096
170	0x3e488a8c	0.19584101
171	0xbd43a230	-0.047762096
172	0x3df68b27	0.1203826
173	0x3e842ab5	0.25813833
174	0x3eb52bf9	0.3538511
175	0x3ee41a39	0.44551256
176	0xbd13f5ba	-0.036123015
177	0xbf145145	-0.5793651
178	0xbeb6756e	-0.35636467
179	0xbe7e98c4	-0.24862963
180	0x3e8d0fc6	0.27551097
181	0x3def3125	0.116792955
182	0xbe92fa61	-0.2870665
183	0xbf17c84d	-0.5929001
184	0xbec2c98d	-0.38044396
185	0x3d634deb	0.05549423
186	0x3d3efe52	0.046629258
187	0x3e13f98a	0.1445066
188	0xbeba80d2	-0.36426407
189	0xbeb25349	-0.34829167
190	0xbe3e1b12	-0.18565014
191	0xbde0e8fa	-0.10981937
192	0x3e7a6399	0.24452056
193	0x3acb22e2	0.0015498067
194	0xbe6c7c5c	-0.23094314
195	0x3d8a8ba6	0.06764917
196	0x3d483319	0.048876856
197	0x3ec7cb22	0.39022166
198	0x3c8fc016	0.017547648
199	0xbe363188	-0.17792332
200	0x3e845fc7	0.25854322
201	0x3ddf32dd	0.10898373
202	0xbf00c30d	-0.50297624
203	0xbee1cbfa	-0.44100934
204	0xbe918588	-0.2842219
205	0xbce0891e	-0.027409133
206	0x3e6993e9	0.2281033
207	0xbce30c66	-0.027715873
208	0xbee42c45	-0.44565025
209	0xbe8ceacd	-0.2752289
210	0xbe82178c	-0.2540859
211	0x3d9e5371	0.07730759
212	0x3e6b6ad4	0.2298997
213	0xbdcf41da	-0.10119982
214	0xbe5873f2	-0.2113798
215	0xbe7c0519	-0.2461132
216	0x3c920e0e	0.017828967
217	0x3e89c58f	0.26908538
218	0xbd344064	-0.04400672
219	0xbe8fc29b	-0.2807816
220	0x3e837d22	0.25681406
221	0x3dea40ed	0.11438165
222	0x3ea3b51b	0.3197411
223	0x3d84ed7f	0.06490611
224	0xbd71e3d6	-0.059055172
225	0xbda16008	-0.07879645
226	0x3c485960	0.01222834
227	0xbea48763	-0.32134542
228	0xbe6b3af8	-0.22971714
229	0xbdf43b1b	-0.11925336
230	0xbee22642	-0.44169813
231	0x3e25e259	0.16199626
232	0xbe11d4f6	-0.14241394
233	0xbe42a25b	-0.19007246
234	0xbdde4bd8	-0.1085431
235	0xbf0d9ddb	-0.55318993
236	0xbe48756a	-0.1957604
237	0xbd4c0646	-0.04981067
238	0xbd9ba9d8	-0.076007545
239	0xbb9d988b	-0.0048094443
240	0xbebcfefb	-0.36913285
241	0xbeae24d0	-0.3401246
242	0xbd92b7df	-0.07163977
243	0xbd267d07	-0.04064658
244	0xbd8dedb7	-0.06930106
245	0x3e31c480	0.17360115
246	0xbdc5236b	-0.09625896
247	0xbd747889	-0.059685264
248	0xbdf47425	-0.11936215
249	0x3d9b10f7	0.07571595
250	0xbb2ff5c1	-0.0026849362
251	0xbe0ea063	-0.1392837
252	0xbe3f105f	-0.18658589
253	0x3e30685a	0.17227307
254	0x3e2bf792	0.1679366
255	0xbe20e933	-0.15713958

c3.bias f4 [16]
0	0x3db08b85	0.08620361
1	0x3ea4f2c1	0.32216457
2	0x3e5694d7	0.20955215
3	0xbe3788b5	-0.17923243
4	0x3b1f571e	0.00243134
5	0x3e524101	0.2053261
6	0x3e8354ae	0.25650543
7	0x3e912821	0.28350928
8	0x3d95ce93	0.073147915
9	0xbc66d4f7	-0.014088861
10	0xba4314fa	-0.00074417854
11	0xbc5206fc	-0.012819048
12	0x3e5f7e08	0.21825421
13	0xbe6e329b	-0.23261492
14	0xbcc6572a	-0.024211485
15	0x3e65aef2	0.22430018

f5.weight f4 [120, 400]
0	0x3d9cee61	0.07662655
1	0x3dc83e59	0.09777517
2	0x3e1e00d8	0.1543001
3	0xbbcda202	-0.0062754164
4	0x3e157369	0.14594807
5	0xbd82cdf5	-0.063869394
6	0x3ccbb57e	0.024866816
7	0xbd4743bc	-0.04864858
8	0xbe041acc	-0.12900847
9	0xbd6db9f5	-0.05803867
10	0x3d217c0a	0.039424933
11	0xbe1a98bb	-0.15097325
12	0xbd260fde	-0.040542476
13	0x3d956b1b	0.07295819
14	0xbe1b908e	-0.15191862
15	0x3d0b819d	0.034059156
16	0xbe323b45	-0.17405422
17	0x3b8a05e4	0.004212128
18	0x3e895a2c	0.26826608
19	0xbb27a2dc	-0.002557925
20	0xbe6e6e1b	-0.2328419
21	0xbe389ec6	-0.18029317
22	0x3cceddbd	0.025252217
23	0x3e1d6565	0.1537071
24	0xbd6f8659	-0.058477733
25	0x3d09c603	0.033636104
26	0x3db6afed	0.08920274
27	0xbd246c3c	-0.040142283
28	0xbe28fb70	-0.16502166
29	0x3d9a4d4c	0.075342745
30	0xbc0720d2	-0.008247571
31	0xbe022736	-0.1271027
32	0x3e40c4ab	0.18825023
33	0xbd8013ef	-0.06253802
34	0x3d13a0fa	0.03604219
35	0x3d7f97d6	0.06240066
36	0xbc4cd7f7	-0.012502662
37	0xbe2458f2	-0.16049555
38	0x3ec115b8	0.37711883
39	0x3bd2a503	0.0064283623
40	0xbd4d35dd	-0.050100196
41	0xbcd7490d	-0.02627995
42	0xbdddd194	-0.108309895
43	0x3ea5b8d4	0.32367575
44	0xbdb42b9d	-0.08797381
45	0xbe2aba4f	-0.16672634
46	0xbd9fa8f4	-0.07795897
47	0x3dc8f2b9	0.09811921
48	0x3d7e5642	0.06209398
49	0xbbe7f65e	-0.00707893
50	0x3d29b06e	0.041428022
51	0x3db0467f	0.08607196
52	0x3e0f7742	0.14010337
53	0x3e22ad60	0.1588645
54	0x3cf2d612	0.029643092
55	0x3da30c8a	0.07961376
56	0x3e1faf03	0.15594105
57	0xbe5691c3	-0.20954041
58	0xbe204bae	-0.1565387
59	0x3e750520	0.23927736
60	0x3e0ae357	0.13563286
61	0x3e0fd3bb	0.14045613
62	0xbe82220e	-0.25416607
63	0xbe1b8018	-0.15185583
64	0x3db2e43a	0.08734937
65	0xbdea4d33	-0.11440506
66	0xbe69373e	-0.2277498
67	0xbd0a239b	-0.033725362
68	0x3d307166	0.043076895
69	0x3e7cb41a	0.24678078
70	0xbe8ee249	-0.27907017
71	0xbe79de47	-0.24401198
72	0x3e156c26	0.14592037
73	0x3e142be2	0.14469865
74	0x3e40c3d7	0.18824707
75	0x3cec8736	0.028873067
76	0xbcf3bccf	-0.029753117
77	0xbcb712f5	-0.022347907
78	0xbdfd5b38	-0.12370914
79	0xbe4ae19b	-0.19812624
80	0xbd6120e4	-0.054963008
81	0x3e140373	0.14454441
82	0xbd5bad3f	-0.053632017
83	0x3c8bb4ee	0.017054047
84	0xbe6265ae	-0.221091
85	0xbd8ee38e	-0.06976996
86	0x3debc6b4	0.11512509
87	0x3ec1b8a3	0.3783618
88	0x3e6685ce	0.2251198
89	0xbd64d159	-0.055863712
90	0x3c95347b	0.018213501
91	0x3e2abc19	0.16673316
92	0x3ee876cf	0.45403144
93	0x3d59122e	0.052995853
94	0xbdb6ba9a	-0.0892231
95	0x3e802c42	0.25033766
96	0x3e8f6955	0.2801005
97	0x3e341f4b	0.17590062
98	0x3e0e8959	0.13919581
99	0x3e73732f	0.23774408
100	0xbd7d0fbe	-0.06178259
101	0xbe95e481	-0.29275897
102	0x3c705b74	0.014670242
103	0xbdcbadd3	-0.09945264
104	0x3eededaf	0.464704
105	0xbe34ab29	-0.17643417
106	0xbd0926a3	-0.033484112
107	0x3e3c4f19	0.18389548
108	0x3da2b1bb	0.07944056
109	0xbe0ba0d5	-0.13635571
110	0xbd9a6e3c	-0.07540557
111	0x3d2fcc4b	0.04291944
112	0x3e27fc58	0.16404855
113	0x3e01b7f5	0.1266783
114	0xbe69cf4c	-0.22832984
115	0xbd449584	-0.04799415
116	0x3dbd1892	0.09233202
117	0xbca670da	-0.020317484
118	0x3e06fa63	0.13181452
119	0x3d9890aa	0.074494675
120	0x3e00f0ac	0.12591809
121	0xbe9da8a3	-0.30792722
122	0xbe8c7e84	-0.27440274
123	0xbd239ba5	-0.039943356
124	0x3df0fe9f	0.11767315
125	0x3da0511a	0.07827969
126	0x3dffff51	0.124998696
127	0x3c880619	0.01660447
128	0xbd857ff9	-0.065185495
129	0xbc4554c4	-0.0120441355
130	0x3d3ed2fc	0.04658793
131	0x3d0423ae	0.03226059
132	0xbc04209b	-0.008064414
133	0xbdae4713	-0.0850965
134	0xbe18ce75	-0.14922507
135	0x3e8a1f09	0.26976803
136	0xbe0487f3	-0.12942486
137	0xbea74c8d	-0.3267559
138	0x3ec8d2cf	0.39223334
139	0xbdd93bbb	-0.10607096
140	0xbcfcbe20	-0.030852377
141	0xbcca17be	-0.024669524
142	0x3c7aae9c	0.015300419
143	0x3eb92756	0.36162823
144	0xbcf6084f	-0.030033259
145	0xbdd71fc6	-0.10504107
146	0xbddf462e	-0.109020576
147	0x3e0da59a	0.13832703
148	0x3e3dbce0	0.18529081
149	0x3d9b4ee5	0.07583407
150	0xbd7c72d8	-0.06163296
151	0x3d4c4e5a	0.04987941
152	0xbde42f6c	-0.111418575
153	0xbe1b966d	-0.15194102
154	0xbe20d6fe	-0.15707013
155	0x3e44e265	0.19226988
156	0xbc99f2ba	-0.018792499
157	0xbebe345e	-0.37149328
158	0x3cb9c063	0.022674745
159	0x3e22d575	0.1590174
160	0x3d1ca031	0.038238708
161	0xbe96b1ed	-0.29432622
162	0xbe9127f1	-0.28350785
163	0xbdeb6946	-0.11494689
164	0x3e608cd9	0.21928729
165	0xbd7b5163	-0.061356913
166	0xbe7d3055	-0.24725468
167	0x3bfde3b1	0.00774809
168	0xbe3a061a	-0.1816639
169	0x3eb3deaa	0.35130817
170	0xbe161a0b	-0.14658372
171	0x3c5e1192	0.013553994
172	0xbab49008	-0.0013775835
173	0xbe58322b	-0.21112888
174	0xbe172bc5	-0.1476279
175	0x3d701cba	0.058621146
176	0xbe4ef5b3	-0.20210914
177	0x3dc7737d	0.097388245
178	0xbdf43ca0	-0.11925626
179	0xbdf250d6	-0.118318245
180	0x3db023ae	0.08600555
181	0xbda71fe0	-0.081603765
182	0x3f0e54c0	0.5559807
183	0x3e8295d3	0.25504932
184	0x3d1cd6e5	0.038290877
185	0x3ddfa954	0.10920969
186	0xbd8fe076	-0.070252344
187	0x3e1ca4c5	0.1529723
188	0x3e119c84	0.14219862
189	0x3b80825c	0.00392179
190	0x3d15e337	0.036593642
191	0x3ea0aa9a	0.3138016
192	0x3ebe3be0	0.37155056
193	0xbccecc03	-0.025243765
194	0xbc61bce4	-0.013777945
195	0xbe4a0b97	-0.19730984
196	0x3d0540ca	0.03253249
197	0x3da3655d	0.07978318
198	0x3d621ab9	0.055201266
199	0x3e3e2ae5	0.1857105
200	0xbcb6f26a	-0.022332389
201	0xbda1c70e	-0.07899295
202	0xbd04fdcf	-0.032468613
203	0xbc2c9a15	-0.010534783
204	0x3c19b1e7	0.009380794
205	0xbe8ed73f	-0.27898595
206	0xbdaa9683	-0.08329489
207	0xbbc7c1eb	-0.006096115
208	0x3dc8817f	0.097903244
209	0xbea49edd	-0.32152453
210	0x3df8f3d1	0.12155879
211	0x3dc00a4c	0.09376964
212	0xbe7c3d4c	-0.24632758
213	0x3f5115c0	0.8167381
214	0x3f3b9193	0.73269004
215	0x3c8e6840	0.017383695
216	0x3df55885	0.119797744
217	0x3e89f799	0.26946715
218	0x3e1720d6	0.1475862
219	0xbe14c27a	-0.14527312
220	0x3d244fcd	0.040115166
221	0x3e755acd	0.23960419
222	0x3cb0f6fc	0.021602146
223	0x3d168084	0.036743656
224	0x3e391f6b	0.18078391
225	0x3dd3dec4	0.103452235
226	0x3d0c2bdc	0.034221515
227	0xbc48c1dd	-0.012253252
228	0x3e955b27	0.29171106
229	0xbdca84b6	-0.09888594
230	0x3d638ba6	0.0555531
231	0x3dd4c80a	0.10389717
232	0x3ded3dcb	0.11584052
233	0xbe5fd462	-0.21858361
234	0xbbf0b1e3	-0.0073454245
235	0xbe8c7747	-0.2743475
236	0x3f10395f	0.5633754
237	0x3f0b84d9	0.54499584
238	0xbe20edca	-0.1571571
239	0xbd9b3516	-0.07578485
240	0xbe99812e	-0.2998137
241	0x3f237cb7	0.63862175
242	0x3e95b4c5	0.2923948
243	0xbe50c061	-0.20385887
244	0xbe901199	-0.28138426
245	0xbc478bb0	-0.0121793
246	0x3f088146	0.53322256
247	0x3ee8a2ee	0.45436805
248	0x3f1ecaf5	0.6202844
249	0xbd0fd217	-0.035112467
250	0xbe1b1e01	-0.15148164
251	0xbdddb098	-0.10824698
252	0x3e0816db	0.13289969
253	0xbe190c64	-0.14946133
254	0x3e5f8757	0.21828972
255	0x3e1bbe62	0.15209344

f5.bias f4 [120]
0	0xbd2eadff	-0.042646404
1	0xbe13ab27	-0.14420758
2	0x3ddd0eb8	0.10793823
3	0xbd83f634	-0.06443444
4	0xbb05e931	-0.0020433182
5	0xbe1686ec	-0.14699906
6	0xbcaa950a	-0.02082302
7	0xbdb5ca58	-0.08876485
8	0xbe00c99b	-0.12576906
9	0xbe675b57	-0.22593437
10	0xbd4bf423	-0.049793374
11	0xbda7c1a6	-0.081912324
12	0x3e2aeb47	0.16691314
13	0x3ca4ac88	0.0201018
14	0xbc970250	-0.01843372
15	0xbe05fd77	-0.1308497
16	0xbe447eae	-0.1918895
17	0x3e135d20	0.14390993
18	0xbdb8b68b	-0.09019192
19	0x3c1d7b56	0.009611925
20	0xbcabda50	-0.020978123
21	0xbc367bc1	-0.011137904
22	0x3ddeb382	0.10874082
23	0xbbfee716	-0.0077790124
24	0xbe1be8da	-0.15225545
25	0xbd2d6e42	-0.04234148
26	0x3bad7b19	0.0052942154
27	0x3de2b64f	0.11069929
28	0x3cd84cf1	0.026403876
29	0xbe195091	-0.1497214
30	0x3d8b61ce	0.06805764
31	0x3d23b280	0.039965153
32	0x3cbd3caf	0.023100225
33	0xbcc77d5d	-0.02435177
34	0xbe3e47f9	-0.18582143
35	0x3da60949	0.0810724
36	0xbd8b18ce	-0.067918405
37	0x3d7a73e9	0.061145697
38	0xbda47c1f	-0.08031487
39	0xbc97aee5	-0.018516013
40	0x3e44e617	0.19228397
41	0xbcad0f61	-0.021125497
42	0x3c8d4c47	0.017248286
43	0xbdec3643	-0.11533787
44	0x3e300e9a	0.1719307
45	0xbd08a9d5	-0.03336509
46	0x3d06c0e6	0.032898806
47	0x3e2fa8da	0.17154256
48	0xbb97d671	-0.0046337177
49	0x3deb4bfa	0.11489101
50	0x3cce049f	0.025148688
51	0xbdfbdd68	-0.12298089
52	0xbda2e378	-0.079535425
53	0x3d69fad3	0.05712397
54	0x3db99585	0.09061722
55	0x3e1092e2	0.14118531
56	0xbe46dfaa	-0.19421259
57	0x3bb64eee	0.0055636084
58	0x3da30c5c	0.07961342
59	0xbda1430a	-0.07874115
60	0xbd580280	-0.05273676
61	0xbd5f7d6d	-0.054562975
62	0x3dcb96e2	0.09940888
63	0x3d35ed59	0.044415805
64	0xbdfacc75	-0.12246028
65	0xbd382a9f	-0.04496252
66	0x3e1a62a7	0.15076695
67	0x3e36efd9	0.17864932
68	0xbc16e54f	-0.009209945
69	0xbd6e32f7	-0.058154073
70	0xbcd80b59	-0.026372598
71	0x3db66aab	0.08907064
72	0xbd5ff6d2	-0.054678746
73	0xbce75a43	-0.028241282
74	0xbdba484e	-0.09095822
75	0x3bdfb78d	0.006827301
76	0xbe109467	-0.14119111
77	0xbd4109f9	-0.04712865
78	0x3c6efb82	0.014586331
79	0x3caeaef7	0.021323664
80	0xbe0f9273	-0.1402071
81	0xbd195118	-0.037430853
82	0x3e11bd5f	0.14232396
83	0xbda68fc3	-0.08132889
84	0xbe7e446e	-0.24830791
85	0x3dee164b	0.11625346
86	0x3dd82260	0.105534315
87	0xbe015831	-0.12631299
88	0xbdee821b	-0.116459094
89	0xbdd14c55	-0.10219637
90	0x3dbc6356	0.09198634
91	0xbe33e222	-0.17566732
92	0x3d9cad7a	0.076502755
93	0x3d70338d	0.058642913
94	0x3e29a394	0.16566306
95	0xbe26e675	-0.1629885
96	0x3e1abec9	0.15111841
97	0x3dab5d9a	0.083674625
98	0xbd402b90	-0.046916544
99	0xbdfe1468	-0.12406236
100	0xbe26a982	-0.162756
101	0xbdee22cb	-0.1162773
102	0xbc368f78	-0.011142604
103	0xbc904ddc	-0.017615251
104	0xbdd7d383	-0.105383895
105	0xbe10edd0	-0.14153218
106	0xbdb00f2b	-0.08596643
107	0xbe1812c8	-0.14850914
108	0xbc4d8828	-0.012544669
109	0xbdd784d0	-0.10523379
110	0x3e3cafc1	0.1842642
111	0xbd9a40bd	-0.07531879
112	0xbe101d50	-0.14073682
113	0x3d322220	0.043489575
114	0x3c9250cd	0.017860794
115	0xbe3de63a	-0.18544856
116	0xbe402836	-0.1876534
117	0x3cd38c1d	0.025823647
118	0x3c6949fc	0.014238831
119	0xbd069edf	-0.032866355

f6.weight f4 [84, 120]
0	0x3d1bbb2d	0.0380203
1	0x3cf3e888	0.029773965
2	0x3e38a8f4	0.180332
3	0xbe4d895a	-0.20071927
4	0x3c23dbc5	0.010001128
5	0x3ccc292d	0.024921978
6	0x3e5e93df	0.21736096
7	0x3dc47126	0.09591894
8	0xbd5aa8e8	-0.053383738
9	0xbe1a140d	-0.15046711
10	0x3cc2a498	0.023760125
11	0x3b9cdc84	0.0047870297
12	0x3d5aa8ee	0.05338376
13	0x3d05a029	0.032623444
14	0x3da2e348	0.07953507
15	0xbe7def5b	-0.24798338
16	0xbe577c8a	-0.21043602
17	0x3ce356dc	0.027751379
18	0xbe158cb0	-0.1460445
19	0xbdaff304	-0.085912734
20	0x3cae3a8d	0.021268154
21	0xbd152546	-0.0364125
22	0x3e18fff7	0.14941393
23	0xba69259c	-0.0008893849
24	0xbd554222	-0.052065022
25	0xbd9fbf11	-0.07800115
26	0xbda5f650	-0.08103621
27	0x3cfd252f	0.03090152
28	0x3d72e676	0.059301816
29	0xbe444367	-0.19166337
30	0x3cfc2b06	0.030782234
31	0x3e16f83a	0.14743128
32	0x3df512fc	0.119665116
33	0xbd26748e	-0.0406385
34	0xbcec3203	-0.028832441
35	0x3e4ea9f3	0.20182018
36	0x3dbbee12	0.09176268
37	0xbdfdd1c7	-0.123935275
38	0x3cd49b05	0.025952825
39	0x3d37f69b	0.044912916
40	0x3e24004c	0.16015738
41	0xbda29390	-0.079383016
42	0xbc219142	-0.009861292
43	0xbd8829f4	-0.06648627
44	0x3dbc1406	0.09183507
45	0xbe9f3096	-0.31091756
46	0xbd9bf8a7	-0.07615786
47	0x3e27beaf	0.16381334
48	0xbd318e67	-0.043348696
49	0xbad05d55	-0.0015896956
50	0x3ea6c62e	0.32573074
51	0x3ce9526f	0.02848169
52	0x3d15a319	0.036532495
53	0xbd2d63a3	-0.04233135
54	0x3e1944a7	0.14967595
55	0x3eab8048	0.33496308
56	0xbe2ce06e	-0.16882488
57	0x3d1cfd93	0.038327765
58	0x3db6554d	0.089029886
59	0xbeaa412d	-0.3325285
60	0xbea8938e	-0.32925075
61	0xbd715a23	-0.05892385
62	0x3c15b7a6	0.0091380235
63	0xbcbaf4c4	-0.022821791
64	0x3d0116c2	0.031515844
65	0xbc79deb9	-0.015250855
66	0xbc8d7690	-0.017268449
67	0x3d16fc14	0.036861494
68	0xbe18004c	-0.14843863
69	0xbc646261	-0.013939471
70	0x3da66645	0.08124975
71	0xbdfd61b0	-0.12372148
72	0xbdcc175f	-0.09965395
73	0xbde394ad	-0.11112342
74	0xbe554756	-0.20827994
75	0xbd35bb48	-0.04436806
76	0xbe133bbb	-0.14378254
77	0xbdb2a232	-0.087223426
78	0xbe88b457	-0.26700088
79	0xbd274663	-0.04083861
80	0xbd4625fa	-0.04837606
81	0xbeb2bfec	-0.3491205
82	0xbddad22d	-0.10684619
83	0x3d6e2fd3	0.058151077
84	0xbdda3c84	-0.10656074
85	0x3df49d97	0.119441204
86	0x3c73d5fb	0.01488256
87	0xbd963fa2	-0.07336356
88	0xbeb352ba	-0.35024053
89	0xbe879a09	-0.26484707
90	0xbbff057e	-0.007782637
91	0xbd8f23fd	-0.06989286
92	0x3cbc009e	0.022949513
93	0xbd1338a6	-0.035942696
94	0xbd532a66	-0.051554106
95	0xbdad6794	-0.084670216
96	0x3cc720b4	0.024307586
97	0x3e14abd9	0.1451868
98	0xbd48ccd6	-0.04902347
99	0xbd87bfa8	-0.066283524
100	0xbd8ad68d	-0.067792036
101	0xbd2e5a79	-0.04256675
102	0x3d9ea4a7	0.07746249
103	0xbc1dfad1	-0.009642319
104	0x3d23150f	0.039815005
105	0xbda339e8	-0.07970029
106	0xbe0da031	-0.1383064
107	0xb9919602	-0.0002776832
108	0x3db7aa1b	0.08967992
109	0xbe1aa878	-0.15103328
110	0xbd92c6a9	-0.07166798
111	0xbe4d98e0	-0.20077848
112	0x3cebba47	0.028775347
113	0xbe830116	-0.25586766
114	0x3ca78030	0.020446867
115	0xbcc3b84e	-0.023891594
116	0xbe3265fa	-0.17421713
117	0x38085218	3.2501383e-05
118	0x3e459d62	0.19298318
119	0xbd0896fb	-0.03334711
120	0x3e295907	0.16537867
121	0x3dde85b3	0.10865345
122	0x3cc53b06	0.024075996
123	0xbb117f18	-0.0022200998
124	0xbcaf432c	-0.021394335
125	0x3d4dd3f9	0.05025098
126	0x3d9c26ab	0.07624563
127	0xbd00fb69	-0.031489763
128	0xbdb1c7bf	-0.08680677
129	0xbd484cd0	-0.04890138
130	0x3dac8d1f	0.08425354
131	0x3c9f3bf4	0.019437768
132	0x3d23b1b9	0.03996441
133	0xbe2b221f	-0.16712235
134	0x3df36e45	0.118862666
135	0xbda53768	-0.080672085
136	0x3d360a10	0.04444319
137	0xbdfbf69f	-0.123028986
138	0xbddfb22e	-0.10922657
139	0x3caa15fc	0.020762436
140	0x3c98df7d	0.018661255
141	0xbcb2fbee	-0.021848645
142	0xbd4a948d	-0.049458075
143	0xbd8af8b1	-0.06785715
144	0x3d87cb94	0.06630626
145	0xbd8a3b1e	-0.06749557
146	0x3cd6bdc3	0.026213532
147	0xbdcac78f	-0.09901344
148	0x3de0f5d5	0.10984389
149	0x3dc21f7f	0.09478664
150	0xbe0a806d	-0.13525553
151	0xbd50ceb9	-0.050978396
152	0x3e12c0ec	0.14331406
153	0xbdb64b17	-0.08901041
154	0xbd6e1dfb	-0.05813406
155	0x3df15bc5	0.11785082
156	0x3e201d23	0.15636115
157	0x3bc0d8e3	0.00588523
158	0xbdbc2082	-0.09185888
159	0xbd74cab8	-0.05976364
160	0xbd4c208b	-0.049835723
161	0x3d173c41	0.036922697
162	0x3c8a6c59	0.016897367
163	0xbde3fc61	-0.11132122
164	0xbd725095	-0.05915888
165	0xbdf5b28c	-0.11996946
166	0xbd6c40d0	-0.057678998
167	0xbb046690	-0.0020202734
168	0xbded12dd	-0.115758635
169	0xbcf1425e	-0.029450592
170	0x3d3c688a	0.045998134
171	0x3dbab6be	0.091168866
172	0xbd8f9c76	-0.070122644
173	0x3d81623e	0.06317566
174	0x3d118afa	0.03553293
175	0x3dfe6d5a	0.12423201
176	0x3d9537a3	0.072860025
177	0xbd5364e2	-0.05160988
178	0x3cc01f63	0.023452466
179	0xbedbbdde	-0.42918295
180	0xbe6128d6	-0.21988234
181	0x3d335067	0.04377785
182	0x3ed45f96	0.41479176
183	0xbd993a0d	-0.074817754
184	0xbdc241f3	-0.09485235
185	0xbdb7b219	-0.08969516
186	0xbd66762a	-0.056265034
187	0xbda9f9cf	-0.082996
188	0x3b0dcf08	0.0021638293
189	0x3e14de4c	0.14537925
190	0x3da101a4	0.07861641
191	0x3e347734	0.17623597
192	0xbd7cbc55	-0.061703045
193	0x3db448b5	0.0880293
194	0x3bd2933b	0.0064262426
195	0x3c9e57a9	0.019328909
196	0x3da79351	0.08182395
197	0xbcefdc5f	-0.029279886
198	0x3dfb68f3	0.12275877
199	0x3d006b0b	0.031352084
200	0x3e12be3a	0.14330378
201	0x3c93ab80	0.018026114
202	0x3cc545da	0.02408116
203	0xbdf5cd50	-0.12002051
204	0x3d10896a	0.0352873
205	0xbd7f8989	-0.062387023
206	0xbd7466d7	-0.05966839
207	0xbe144f74	-0.14483434
208	0x3de0e20f	0.10980617
209	0x3d84f982	0.06492902
210	0xbd577b2f	-0.05260771
211	0xbe1bf3ff	-0.15229796
212	0xbc68ec8b	-0.0142165525
213	0xbe181bf2	-0.1485441
214	0x3d7cf231	0.06175441
215	0xbcdaa0f2	-0.026688073
216	0x3c962ad6	0.018330973
217	0x3c91258c	0.017718099
218	0x3dcea628	0.100902855
219	0xbc8523dc	-0.01625245
220	0x3d044572	0.03229279
221	0x3cf7f172	0.030266497
222	0xbc97253a	-0.018450368
223	0x3d319a17	0.043359842
224	0xbd9913eb	-0.07474502
225	0x3e626400	0.2210846
226	0xbda24d2a	-0.07924874
227	0x3d6bbd72	0.057553716
228	0x3db4f8c0	0.08836508
229	0x3de7ddef	0.11321627
230	0x3d4706f7	0.048590627
231	0xbdd1e28e	-0.1024829
232	0x3d667b30	0.056269825
233	0xbbeb40e8	-0.0071793683
234	0xbe302a13	-0.1720355
235	0x3da2b172	0.07944001
236	0x3e16a941	0.14713003
237	0x3bcafe75	0.0061948844
238	0x3da73e57	0.08166187
239	0x3e301aa5	0.17197664
240	0xbd3558bd	-0.04427408
241	0x3cd6ff18	0.026244685
242	0x3cf7de76	0.030257445
243	0xbe099e58	-0.1343931
244	0x3c9748fa	0.018467415
245	0x3cd67dc4	0.026183017
246	0xbd639c9a	-0.05556927
247	0x3ac46867	0.0014984728
248	0xbd607695	-0.05480059
249	0xbddd5396	-0.108069584
250	0xbd1fce6c	-0.03901522
251	0xbdb05bbb	-0.08611246
252	0xbd827bd7	-0.06371277
253	0x3cdd2f59	0.027000116
254	0x3d912026	0.0708621
255	0xbe424fb2	-0.18975714

f6.bias f4 [84]
0	0x3dc053c8	0.0939098
1	0x3cdc7c1b	0.026914647
2	0x3d249f85	0.040191192
3	0x3db4b861	0.0882423
4	0xbe2e1000	-0.16998291
5	0x3e17869b	0.14797442
6	0xbe8727f6	-0.26397675
7	0xbdbf4bdc	-0.09340641
8	0xbe4464b8	-0.19179046
9	0xbd7d3a60	-0.06182325
10	0x3e2a007d	0.16601749
11	0x3cde9874	0.027172305
12	0xbd2aa5fc	-0.0416622
13	0x3d15d23c	0.03657745
14	0xbda0c06f	-0.07849204
15	0xbe864f57	-0.26232406
16	0xbb9873bd	-0.004652469
17	0x3ca0ebae	0.01964363
18	0xbd1d6712	-0.038428374
19	0xbe46109e	-0.19342276
20	0x3e6347ad	0.22195311
21	0x3e25961c	0.16170543
22	0x3d996970	0.07490814
23	0xbd42a954	-0.047524765
24	0x3dcdc6fe	0.100477204
25	0x3e801fae	0.2502417
26	0x3e034a90	0.12821412
27	0xbe1a183f	-0.15048312
28	0xbe02b6c9	-0.1276504
29	0x3c8486bf	0.016177533
30	0x3d4f554c	0.050618455
31	0xbb6eb3b4	-0.003642303
32	0x3a0af646	0.000530098
33	0xbdbc87a3	-0.09205558
34	0xbe9130ef	-0.28357646
35	0x3dcfb7c2	0.10142471
36	0x3d2f5607	0.04280665
37	0x3e297b2f	0.16550897
38	0x3d9d2815	0.07673661
39	0x3e2409d9	0.16019382
40	0x3e89b4d3	0.2689577
41	0xbe288748	-0.16457856
42	0xbcc82338	-0.024430856
43	0xbd9d582d	-0.07682834
44	0x3ea9785c	0.3309964
45	0x3c812501	0.015764715
46	0xbe26e8b2	-0.16299704
47	0x3d023076	0.031784497
48	0x3de51ec4	0.11187509
49	0x3d4695b5	0.048482616
50	0xbdf451e1	-0.1192968
51	0x3df9d340	0.12198496
52	0x3df1f490	0.11814225
53	0xbc9081bf	-0.017639993
54	0xbe2eba56	-0.17063269
55	0xbd146106	-0.03622534
56	0x3e45deee	0.19323322
57	0xbdaa9f8b	-0.08331212
58	0xbd556fcc	-0.05210857
59	0xbd490d1b	-0.049084764
60	0xbca1531d	-0.019692952
61	0x3c187171	0.00930439
62	0xbe2e73d8	-0.17036378
63	0xbe05b7c5	-0.13058384
64	0x3e59f02b	0.21283023
65	0xbdbf8905	-0.09352306
66	0x3dff5084	0.12466529
67	0x3d094a60	0.033518195
68	0xbdd71f5b	-0.105040275
69	0x3da3730f	0.0798093
70	0x3d5effa1	0.054443005
71	0x3e37459c	0.17897648
72	0x3d6753be	0.056476347
73	0x3d167e64	0.03674163
74	0xbd12b35b	-0.035815578
75	0xbddeddd7	-0.10882156
76	0xbc4e970e	-0.012609256
77	0xbe02e73b	-0.1278352
78	0x3d5c3102	0.053757675
79	0xbd245754	-0.040122345
80	0xbd741a02	-0.059595115
81	0xbc577466	-0.01315031
82	0xbea1cb5c	-0.31600463
83	0x3df5709d	0.1198437

f7.weight f4 [10, 84]
0	0x3d4b5888	0.049644977
1	0x3e063e66	0.1310974
2	0x3df9ffab	0.12206968
3	0x3dfab251	0.122410424
4	0x3d850ae8	0.06496221
5	0xbd04318b	-0.03227381
6	0x3dd77e63	0.10522153
7	0xbdc0bec0	-0.09411383
8	0xbdfc6342	-0.123236194
9	0x3c674bd5	0.014117201
10	0xbd8d06f7	-0.06886094
11	0xbcce2535	-0.025164226
12	0xbd90fbf5	-0.07079307
13	0x3cc1fc98	0.023680016
14	0xbcb41af4	-0.021985509
15	0xbe25bfb6	-0.16186413
16	0x3d902e52	0.07040085
17	0xbe08d91b	-0.13364069
18	0x3e65fbb0	0.22459292
19	0xbe6a22d5	-0.2286485
20	0xbc28a31c	-0.010292795
21	0x3db42c66	0.08797531
22	0x3cb466de	0.022021707
23	0xbde93b1f	-0.113882296
24	0xbe04a73f	-0.12954424
25	0x3ddb1224	0.106968194
26	0x3e06c8f1	0.1316259
27	0x3e1ad153	0.15118913
28	0x3cc61a58	0.024182484
29	0xbe3d059c	-0.18459171
30	0x3c86e1c3	0.016465073
31	0x3cd26fed	0.025688136
32	0x3c899b5f	0.01679772
33	0xbdd13bfa	-0.10216518
34	0xbdfda611	-0.1238519
35	0x3e42c6e1	0.19021179
36	0xbddf66f1	-0.109083064
37	0xbd930cb8	-0.0718016
38	0x3d8ce42d	0.068794586
39	0xbe213291	-0.15741946
40	0xbd220e08	-0.039564162
41	0x3dc7800c	0.0974122
42	0x3c870aa2	0.016484562
43	0xbe219ae4	-0.15781742
44	0x3dc2c34e	0.09509908
45	0x3dade38d	0.084906675
46	0xbd070bb2	-0.032970138
47	0x3da5971c	0.080854625
48	0x3e495506	0.1966134
49	0xbd1472ee	-0.036242418
50	0x3c89cad4	0.016820349
51	0xbd1ccedd	-0.038283218
52	0x3cf1ddca	0.029524703
53	0x3c2cc4ca	0.010544965
54	0x3df4af8a	0.11947544
55	0x3e3ce409	0.18446364
56	0x3d5f2a69	0.054483805
57	0x3c230d24	0.009951863
58	0xbe3b285f	-0.18277119
59	0x3be7f366	0.007078576
60	0x3ba03a8d	0.0048897923
61	0x3e4c7ff2	0.19970682
62	0x3d87852e	0.06617199
63	0xbd1b5f9e	-0.037932985
64	0x3c27cda6	0.0102419015
65	0x3b08a365	0.0020849344
66	0x3e0096ca	0.12557521
67	0xbd16b229	-0.036791
68	0xbdc9d12a	-0.09854348
69	0xbca28fa9	-0.019843893
70	0x3ce63f2f	0.0281063
71	0xbdcc838f	-0.0998603
72	0xbdf2dad9	-0.11858148
73	0xbdbe1fa2	-0.09283377
74	0x3e5876b5	0.21139033
75	0xbe355038	-0.17706382
76	0x3d6e9f93	0.05825765
77	0xbdaca6fe	-0.08430289
78	0xbe664126	-0.2248579
79	0xbc707b8f	-0.014677896
80	0xbdac24a2	-0.08405425
81	0x3e3e0ec1	0.18560316
82	0xbe118494	-0.14210731
83	0x3e2ef1d8	0.17084444
84	0xbe1ee05a	-0.15515271
85	0x3cd9af80	0.026572943
86	0x3d0f1a75	0.03493734
87	0xbeb64afd	-0.35604087
88	0xbc06e06f	-0.00823222
89	0x3da95547	0.082682185
90	0x3e35bbaa	0.1774737
91	0xbac623ad	-0.0015116833
92	0x3e5527b4	0.20815927
93	0x3cdfb321	0.027307095
94	0xbe58d023	-0.21173148
95	0xbd7c9c21	-0.061672334
96	0x3c2220c5	0.009895508
97	0x3e725d42	0.23668388
98	0xbc4ce82c	-0.012506526
99	0x3e088677	0.13332544
100	0xbd254272	-0.04034657
101	0xbd82d654	-0.06388536
102	0x3e3dd2ec	0.18537492
103	0x3e8ca824	0.2747203
104	0xbda2bd30	-0.07946241
105	0xbd0ce6d5	-0.034399826
106	0xbc406043	-0.011741701
107	0xbda3192e	-0.07963787
108	0xbe3e67dd	-0.18594308
109	0xbe6724d6	-0.22572646
110	0x3e00202d	0.12512274
111	0x3d672dab	0.056440037
112	0xbe78a52b	-0.24281757
113	0xbd8f7cb5	-0.07006208
114	0x3e006d63	0.12541728
115	0x3d94c8ef	0.072648875
116	0x3d965b62	0.07341649
117	0xbd09e980	-0.03366995
118	0x3e0e871f	0.13918732
119	0x3cc54acb	0.024083516
120	0xbcd11f4c	-0.025527619
121	0xbea64e33	-0.32481536
122	0xbd63eb20	-0.055644155
123	0xbe8e5c98	-0.27805018
124	0xbd62c758	-0.05536589
125	0x3e93b9e0	0.2885275
126	0x3e178fa5	0.1480089
127	0xbd2dbc1b	-0.04241572
128	0xbe4ea5da	-0.20180455
129	0x3dd3fd7d	0.103510834
130	0xbd8520c9	-0.06500394
131	0x3debd3ef	0.115150325
132	0xbdb20989	-0.08693225
133	0x3dbb0e03	0.09133532
134	0xbe971417	-0.29507515
135	0x3e26824f	0.16260646
136	0xbe21a4d6	-0.15785536
137	0x3c1fc5d7	0.009751759
138	0x3e5de404	0.21669012
139	0x3e8a80d7	0.27051422
140	0xbe72c1dc	-0.23706764
141	0xbe79a864	-0.24380642
142	0xbc935f14	-0.017989673
143	0xbc55a0a2	-0.013038786
144	0x3e103b18	0.14085042
145	0xbd9dd638	-0.077068746
146	0x3d94f058	0.072724044
147	0xbe5d7730	-0.21627498
148	0xbc86ac0a	-0.016439456
149	0x3e02eb86	0.12785158
150	0xbe5a41c7	-0.21314155
151	0xbd001172	-0.031266637
152	0xbe8e4920	-0.27790165
153	0xbddbf15c	-0.10739395
154	0x3cada88b	0.021198532
155	0xbde816f0	-0.113325
156	0xbd05b259	-0.03264079
157	0xbe458f48	-0.19292939
158	0x3e128dbd	0.14311881
159	0x3e059f90	0.1304915
160	0x3c323d16	0.010878822
161	0xbe072cf7	-0.13200746
162	0xbdf2e85a	-0.11860724
163	0x3cc5a5b7	0.02412687
164	0xbdfcc26a	-0.12341769
165	0x3d39199e	0.045190446
166	0x3e5afd70	0.21385741
167	0x3d6389ad	0.05555122
168	0x3e0d0d30	0.13774562
169	0x3df327b5	0.11872808
170	0x3d152429	0.036411438
171	0x3d8543f3	0.06507101
172	0xbe59b231	-0.21259381
173	0xbcce2071	-0.025161954
174	0x3ccf5d5b	0.02531307
175	0xbd27c371	-0.04095787
176	0xbe36165a	-0.17781964
177	0xbcd08687	-0.025454773
178	0x3cb5af97	0.022178454
179	0xbd85511d	-0.06509612
180	0xbd91e67a	-0.07124038
181	0x3dff9557	0.12479656
182	0xbe26c26a	-0.162851
183	0xbe10530d	-0.14094181
184	0xbe370b6f	-0.17875455
185	0xbe49ed9b	-0.19719546
186	0x3d720098	0.059082597
187	0x3e226b13	0.15861158
188	0x3e305ce8	0.17222941
189	0xbd59dba8	-0.053187996
190	0xbe044ddf	-0.1292033
191	0xbe018429	-0.12648071
192	0xbd3790a3	-0.04481567
193	0x3d825755	0.063643135
194	0xbcb3fa03	-0.0219698
195	0xbd23c475	-0.039982278
196	0xbe06d45f	-0.1316695
197	0xbe239345	-0.15974148
198	0x3db610cb	0.08889922
199	0x3d812cc2	0.06307365
200	0x3da27d55	0.079340614
201	0xbd273db2	-0.04083032
202	0xbda00cd9	-0.078149505
203	0xbd870cea	-0.0659426
204	0xbdfca46d	-0.12336049
205	0x3e25a0d9	0.1617464
206	0x3d5dde92	0.054167338
207	0x3d163af5	0.03667732
208	0x3d3fcc3e	0.04682564
209	0xbc0900ae	-0.008361978
210	0x3e59a714	0.21255141
211	0xbe01acee	-0.12663624
212	0x3de2146f	0.11039054
213	0x3dbc0136	0.091799185
214	0xbe19d129	-0.15021195
215	0x3ddee8e9	0.10884268
216	0x3dbb1865	0.09135512
217	0xbc64bacf	-0.013960554
218	0x3bdcce69	0.006738473
219	0xbc3aa388	-0.011391528
220	0xbd053183	-0.03251792
221	0x3be27c37	0.00691178
222	0xbdd6701c	-0.10470602
223	0xbdcce656	-0.100048706
224	0x3e11a2ab	0.14222209
225	0x3d2e1735	0.0425026
226	0x3dab45cd	0.08362923
227	0xbbecd7fd	-0.0072278962
228	0xbe1c408f	-0.15259002
229	0xbdbab973	-0.09117403
230	0x3d9e8c84	0.07741645
231	0x3dba2ddf	0.090907805
232	0x3d149f45	0.036284704
233	0xbb48d01e	-0.0030641626
234	0x3dbac12b	0.09118875
235	0xbcefc03b	-0.029266467
236	0xbe98aa9c	-0.29817665
237	0xbe50262f	-0.20327066
238	0xbe6c70d8	-0.23089921
239	0xbdb3ff7e	-0.08788966
240	0xbe03eb4b	-0.12882726
241	0xbcea073d	-0.028567905
242	0x3e015dfc	0.12633508
243	0xbe1d92b3	-0.15387993
244	0x3d8aa06d	0.0676888
245	0xbdd5255a	-0.10407515
246	0xbdcf45a4	-0.10120705
247	0xbe466eae	-0.19378158
248	0x3d9d1e1a	0.07671757
249	0x3e1ce4f5	0.15321715
250	0xbe25868b	-0.16164605
251	0x3d294060	0.04132116
252	0xbd9479da	-0.07249804
253	0x3e0deba9	0.13859428
254	0x3e3c6bc9	0.18400492
255	0xbd26c2b1	-0.040713016

f7.bias f4 [10]
0	0xbd5b139d	-0.0534855
1	0xbe984dbc	-0.29746807
2	0x3e42373d	0.18966384
3	0x3dcc184e	0.09965573
4	0xbe2b72aa	-0.1674296
5	0xbd90fdbe	-0.070796475
6	0x3e63db99	0.22251739
7	0xbddc406e	-0.107544765
8	0x3e5fcc5e	0.21855304
9	0xbe2b96cf	-0.16756748
